…
accuracy: 0.8105
Testing loss: 0.89910888671875
Testing accuracy: 81.05000257492065%

Testing problem_3b:

Importing MNIST Dataset...
(48000, 784) train samples
(12000, 784) validation samples
(10000, 784) test samples


(48000, 10) train labels
(12000, 10) validation labels
(10000, 10) test labels



Running for Model 1/6 

Model: "sequential_1"
_________________________________________________________________
 Layer (type)                Output Shape              Param #   
=================================================================
 input_layer (Dense)         (None, 40)                31400     
                                                                 
 hidden1 (Dense)             (None, 40)                1640      
                                                                 
 hidden2 (Dense)             (None, 40)                1640      
                                                                 
 hidden3 (Dense)             (None, 40)                1640      
                                                                 
 output_layer (Dense)        (None, 10)                410       
                                                                 
=================================================================
Total params: 36,730
Trainable params: 36,730
Non-trainable params: 0
_________________________________________________________________

Training NN with EPOCHS=220, BATCH_SIZE=64, LEARNING_RATE=0.001 and L2_REGULARIZE=0.001, ARCHITECTURE=[{'name': 'in
…
=================>.......] - ETA: 0s - loss: 0.5691 - accuracy: 0.8654313/313 [==============================] - 0s 413us/step - loss: 0.5646 - accuracy: 0.8660
Testing loss: 0.5646333694458008
Testing accuracy: 86.59999966621399%

Running for Model 2/6 

Model: "sequential_2"
_________________________________________________________________
 Layer (type)                Output Shape              Param #   
=================================================================
 input_layer (Dense)         (None, 50)                39250     
                                                                 
 hidden1 (Dense)             (None, 50)                2550      
                                                                 
 hidden2 (Dense)             (None, 50)                2550      
                                                                 
 hidden3 (Dense)             (None, 50)                2550      
                                                                 
 output_layer (Dense)        (None, 10)                510       
                                                                 
=================================================================
Total params: 47,410
Trainable params: 47,410
Non-trainable params: 0
_________________________________________________________________

Training NN with EPOCHS=220, BATCH_SIZE=64, LEARNING_RATE=0.001 and L2_REGULARIZE=0.001, ARCHITECTURE=[{'name': 'in
…
================>........] - ETA: 0s - loss: 0.5886 - accuracy: 0.8649313/313 [==============================] - 0s 442us/step - loss: 0.5823 - accuracy: 0.8667
Testing loss: 0.5822523236274719
Testing accuracy: 86.66999936103821%

Running for Model 3/6 

Model: "sequential_3"
_________________________________________________________________
 Layer (type)                Output Shape              Param #   
=================================================================
 input_layer (Dense)         (None, 40)                31400     
                                                                 
 hidden1 (Dense)             (None, 40)                1640      
                                                                 
 hidden2 (Dense)             (None, 40)                1640      
                                                                 
 hidden3 (Dense)             (None, 40)                1640      
                                                                 
 hidden4 (Dense)             (None, 40)                1640      
                                                                 
 output_layer (Dense)        (None, 10)                410       
                                                                 
=================================================================
Total params: 38,370
Trainable params: 38,370
Non-trainable params: 0
_________________________________________________________________

Training NN with EPOCHS=220, BATCH_SIZE=64, LEARNING_RATE=0.001 and L2_REGULARIZE=0.001, ARCHITECTURE=[{'name': 'in
…
================>........] - ETA: 0s - loss: 0.6021 - accuracy: 0.8596313/313 [==============================] - 0s 427us/step - loss: 0.5974 - accuracy: 0.8612
Testing loss: 0.5974323749542236
Testing accuracy: 86.11999750137329%

Running for Model 4/6 

Model: "sequential_4"
_________________________________________________________________
 Layer (type)                Output Shape              Param #   
=================================================================
 input_layer (Dense)         (None, 50)                39250     
                                                                 
 hidden1 (Dense)             (None, 50)                2550      
                                                                 
 hidden2 (Dense)             (None, 50)                2550      
                                                                 
 hidden3 (Dense)             (None, 50)                2550      
                                                                 
 hidden4 (Dense)             (None, 50)                2550      
                                                                 
 output_layer (Dense)        (None, 10)                510       
                                                                 
=================================================================
Total params: 49,960
Trainable params: 49,960
Non-trainable params: 0
_________________________________________________________________

Training NN with EPOCHS=220, BATCH_SIZE=64, LEARNING_RATE=0.001 and L2_REGULARIZE=0.001, ARCHITECTURE=[{'name': 'in
…
=================>.........] - ETA: 0s - loss: 0.6308 - accuracy: 0.8574313/313 [==============================] - 0s 446us/step - loss: 0.6210 - accuracy: 0.8590
Testing loss: 0.621040940284729
Testing accuracy: 85.9000027179718%

Running for Model 5/6 

Model: "sequential_5"
_________________________________________________________________
 Layer (type)                Output Shape              Param #   
=================================================================
 input_layer (Dense)         (None, 40)                31400     
                                                                 
 hidden1 (Dense)             (None, 40)                1640      
                                                                 
 hidden2 (Dense)             (None, 40)                1640      
                                                                 
 hidden3 (Dense)             (None, 40)                1640      
                                                                 
 hidden4 (Dense)             (None, 40)                1640      
                                                                 
 hidden5 (Dense)             (None, 40)                1640      
                                                                 
 output_layer (Dense)        (None, 10)                410       
                                                                 
=================================================================
Total params: 40,010
Trainable params: 40,010
Non-trainable params: 0
_________________________________________________________________

Training NN with EPOCHS=220, BATCH_SIZE=64, LEARNING_RATE=0.001 and L2_REGULARIZE=0.001, ARCHITECTURE=[{'name': 'in
…
=================>.......] - ETA: 0s - loss: 0.6141 - accuracy: 0.8638313/313 [==============================] - 0s 423us/step - loss: 0.6121 - accuracy: 0.8658
Testing loss: 0.6121042966842651
Testing accuracy: 86.58000230789185%

Running for Model 6/6 

Model: "sequential_6"
_________________________________________________________________
 Layer (type)                Output Shape              Param #   
=================================================================
 input_layer (Dense)         (None, 50)                39250     
                                                                 
 hidden1 (Dense)             (None, 50)                2550      
                                                                 
 hidden2 (Dense)             (None, 50)                2550      
                                                                 
 hidden3 (Dense)             (None, 50)                2550      
                                                                 
 hidden4 (Dense)             (None, 50)                2550      
                                                                 
 hidden5 (Dense)             (None, 50)                2550      
                                                                 
 output_layer (Dense)        (None, 10)                510       
                                                                 
=================================================================
Total params: 52,510
Trainable params: 52,510
Non-trainable params: 0
_________________________________________________________________

Training NN with EPOCHS=220, BATCH_SIZE=64, LEARNING_RATE=0.001 and L2_REGULARIZE=0.001, ARCHITECTURE=[{'name': 'in
…
